model_state.pt (torch, 28016 bytes, 6 tensors)

layer1.weight f4 [64, 30]
0	0x3e188482	0.14894298
1	0xbd910781	-0.070815094
2	0x3d321e9a	0.043486215
3	0x3d31307b	0.043259125
4	0x3dd41072	0.10354699
5	0x3ddb080b	0.106948934
6	0x3bffab68	0.0078024156
7	0xbd2a9138	-0.041642398
8	0x3e147b86	0.14500245
9	0xbe06e437	-0.13172995
10	0x3db1c83e	0.08680771
11	0x3dff6032	0.1246952
12	0xbe30c6d1	-0.17263342
13	0x3b52b18c	0.0032149283
14	0xbc491029	-0.012271919
15	0x3def6f7e	0.11691187
16	0xbd57c507	-0.052678134
17	0xbd8951dd	-0.06705067
18	0xbd0e264c	-0.03470449
19	0xbd7e7ff8	-0.06213376
20	0x3e3a9b7a	0.18223372
21	0x3e405e9d	0.18786092
22	0x3e38349f	0.17988823
23	0xbe16d4df	-0.14729641
24	0x3e0bdd27	0.13658582
25	0xbe3c967b	-0.18416779
26	0x3e3014de	0.1719546
27	0x3da60c81	0.08107854
28	0xbcd10546	-0.02551521
29	0x3dc92369	0.09821207
30	0xbcd80480	-0.026369333
31	0xbc680502	-0.01416135
32	0xbd9c8586	-0.07642655
33	0x3dad14cf	0.084512345
34	0x3daee648	0.085400164
35	0x3db52e01	0.08846665
36	0xbe1a8928	-0.15091383
37	0x3d56891e	0.05237686
38	0x3d94d097	0.07266348
39	0xbe2670ec	-0.16254014
40	0xbd14cb5c	-0.03632675
41	0xbd52d98a	-0.051476993
42	0x3e0f053c	0.1396684
43	0xbe050940	-0.1299181
44	0xbda63138	-0.081148565
45	0xbd03e4c4	-0.03220059
46	0x3df3f85a	0.11912604
47	0xbe2a21b0	-0.16614413
48	0xbd796d93	-0.060895514
49	0xbdb3de68	-0.08782655
50	0x3e305a2a	0.17221895
51	0x3d163dec	0.036680147
52	0x3c849b38	0.016187295
53	0xbdf7423b	-0.12073179
54	0x3e00d6c7	0.12581931
55	0xbb8f2960	-0.004368946
56	0x3dda788e	0.10667525
57	0xbd38b6e2	-0.045096286
58	0xbc829e2a	-0.01594456
59	0x3e227893	0.15866308
60	0xbe415b56	-0.18882498
61	0xbdc28f55	-0.09499995
62	0x3e008282	0.12549785
63	0x3c9d474f	0.019199042
64	0xbdd66d86	-0.10470109
65	0x3e2aa068	0.16662753
66	0x3d21c5ce	0.039495282
67	0x3df4c13e	0.119509205
68	0x3d25665a	0.040380813
69	0x3e00f20d	0.12592335
70	0x3c9e1538	0.019297227
71	0xbdabde57	-0.08392017
72	0xbd188bce	-0.037242703
73	0xbe2d0b50	-0.16898847
74	0x3c18e794	0.009332556
75	0xbd9b93d0	-0.07596552
76	0x3dc67663	0.09690549
77	0x3e4a501b	0.1975712
78	0x3e194548	0.14967835
79	0x3d086f51	0.033309285
80	0xbdf9135f	-0.12161898
81	0xbcf53f52	-0.02993742
82	0x3e3bccb4	0.18339807
83	0xbe072f1c	-0.13201565
84	0x3cd2a513	0.02571348
85	0x3ce7dd88	0.028303877
86	0x3daa1fce	0.083068475
87	0xbe3d368c	-0.18477839
88	0xbd38dc19	-0.045131776
89	0xbdfc8012	-0.12329115
90	0x3d1c4541	0.038151983
91	0xbd081cb8	-0.033230513
92	0x3c12db2f	0.00896339
93	0x3e1c038a	0.15235725
94	0x3e00658c	0.12538737
95	0xbc7558b7	-0.014974765
96	0xbbe3795a	-0.0069419565
97	0xbd088178	-0.033326596
98	0xbe2f2210	-0.17102838
99	0xbd0bc9a3	-0.034127843
100	0xbd065bcc	-0.032802388
101	0x3d2114a2	0.039326318
102	0xbdef588f	-0.11686813
103	0xbd485438	-0.048908442
104	0x3d828027	0.06372099
105	0x3d99294c	0.0747858
106	0xbd9e7ff4	-0.07739249
107	0xbe2ec526	-0.17067394
108	0xbd2588e7	-0.040413763
109	0x3d43fcc4	0.047848478
110	0x3dfe3357	0.12412136
111	0x3d9c4c3e	0.076317295
112	0xbe2163db	-0.15760748
113	0xbdd45eca	-0.10369642
114	0x3cd41e20	0.025893271
115	0xbe3ef37c	-0.1864757
116	0xbe43fcd8	-0.19139421
117	0xbd3549ba	-0.044259764
118	0xbd4637a4	-0.048392907
119	0x3ded4386	0.11585145
120	0x3d51161b	0.051046472
121	0xbde779a4	-0.11302498
122	0xbca5954c	-0.020212792
123	0x3e1be034	0.15222245
124	0xbdc93808	-0.0982514
125	0x3de23e3d	0.11047027
126	0x3e38866c	0.18020028
127	0x3dbd6a4d	0.09248791
128	0x3d2268c6	0.0396507
129	0xbd1646f4	-0.03668876
130	0x3df909e8	0.121600926
131	0x3e130c16	0.14360079
132	0x3e312701	0.17300035
133	0x3d8b1970	0.06791961
134	0xbe1a4cfb	-0.15068428
135	0xbe2670e7	-0.16254006
136	0x3d3af943	0.04564787
137	0x3b382490	0.0028097965
138	0x3e296fcd	0.16546555
139	0xbe0ac3e8	-0.13551295
140	0x3d6870df	0.056748267
141	0xbe103c9e	-0.14085624
142	0xbe2ed674	-0.17073995
143	0x3d31c71b	0.043402772
144	0x3d84cb48	0.06484085
145	0xbcfa1405	-0.030527124
146	0xbc66e51b	-0.014092709
147	0xbe15f3f7	-0.14643846
148	0xbddcfcc4	-0.10790399
149	0x3cf73662	0.030177299
150	0xbc25f859	-0.0101300115
151	0x3e01132a	0.12604967
152	0xbe07a8f0	-0.13248038
153	0xbd20c777	-0.039252724
154	0x3e208554	0.1567586
155	0x3d781bcc	0.060573384
156	0xbdbebc5c	-0.093132704
157	0xbe1b2294	-0.1514991
158	0xbe3ba885	-0.18326004
159	0x3e1883a6	0.1489397
160	0x3de78645	0.11304907
161	0x3cd57015	0.026054421
162	0x3e1d690f	0.15372108
163	0xbd439382	-0.047748096
164	0xbd2e9a57	-0.04262766
165	0x3d4d7d60	0.050168395
166	0x3de8ecf1	0.11373318
167	0xbc445d22	-0.011985095
168	0x3e26818c	0.16260356
169	0x3de15e0c	0.11004266
170	0x3e166599	0.14687194
171	0x3e1ce738	0.15322578
172	0x3973c800	0.00023248792
173	0x3dcb352d	0.09922252
174	0xbd079885	-0.03310444
175	0x3db43d99	0.08800811
176	0xbd07af70	-0.033126295
177	0xbd935c45	-0.071953334
178	0xbe16bf4f	-0.14721416
179	0x399497a0	0.0002834173
180	0xbde69396	-0.112586185
181	0xbcbfb9d8	-0.023404047
182	0xbe044aa0	-0.12919092
183	0x3d280ebd	0.04102968
184	0x3e1602d9	0.14649524
185	0xbcd1bc07	-0.025602354
186	0xbc2b4f1c	-0.010455873
187	0x3df6f93a	0.12059255
188	0xbe2b4bd2	-0.16728142
189	0x3ce3656a	0.027758319
190	0x3d9f605c	0.07782051
191	0x3db82428	0.08991271
192	0xbe1c1430	-0.15242076
193	0xbd080874	-0.033211187
194	0xbcff9bea	-0.031202275
195	0x3c20baf3	0.009810197
196	0x3e1aca08	0.15116131
197	0x3d3dae05	0.046308536
198	0xbdfef8b4	-0.1244978
199	0xbe31acb0	-0.17351031
200	0x3e1d95e1	0.15389206
201	0xbac56a38	-0.0015061563
202	0x3d78fa6f	0.060785707
203	0x3e2f0085	0.17090042
204	0x3d15daed	0.036585737
205	0x3dc278f9	0.0949573
206	0xbcc6145a	-0.024179626
207	0xbe0a49e9	-0.13504757
208	0x3c8832d0	0.016625792
209	0xbcd20704	-0.025638111
210	0x3d2649c0	0.040597677
211	0xbe06bb29	-0.13157333
212	0xbda332fd	-0.079687096
213	0x3d316652	0.04331047
214	0xbd52e303	-0.051486026
215	0xbda20fd8	-0.07913178
216	0xbe3af115	-0.18256028
217	0xbd7c01cf	-0.061525162
218	0xbd832a9a	-0.0640461
219	0x3cac16b3	0.021006918
220	0x3cf07ad0	0.029355437
221	0x3d73cb12	0.059519835
222	0x3da232a3	0.079198144
223	0xbd7f8646	-0.062383913
224	0xbdcead53	-0.10091653
225	0x3e0717a2	0.13192609
226	0x3cf977b8	0.030452594
227	0xbe232486	-0.15931901
228	0x3db0e00f	0.08636486
229	0xbc056d80	-0.008143783
230	0xbcd74944	-0.026280053
231	0x3e27bb06	0.16379938
232	0xbd95c97c	-0.07313821
233	0x3d943e68	0.072384655
234	0xbdb64be4	-0.08901194
235	0xbdfbaa0a	-0.12288292
236	0x3d845c43	0.0646291
237	0xbe42e677	-0.19033228
238	0x3d991ecc	0.07476577
239	0x3e0bc4c2	0.13649276
240	0xbc9a0784	-0.018802412
241	0xbd6711be	-0.056413405
242	0xbe22e77d	-0.15908618
243	0x3d9b5f6e	0.07586561
244	0x3c86384a	0.016384263
245	0xbb13ce64	-0.0022553438
246	0x3b2ef8a4	0.0026698494
247	0x3e22bfbf	0.15893458
248	0xbe02535c	-0.12727112
249	0x3db5b282	0.08871938
250	0x3cb6599c	0.022259526
251	0x3da6798f	0.08128654
252	0x3de9222a	0.113834694
253	0xbdc6bead	-0.09704337
254	0x3db51bfa	0.08843227
255	0x3d132952	0.035928078

layer1.bias f4 [64]
0	0x3d912cfa	0.07088657
1	0x3cee8d9e	0.029120263
2	0x3dc38027	0.095459275
3	0xbe03e369	-0.12879719
4	0x3c0c73c6	0.008572524
5	0xbe28fe14	-0.16503173
6	0x3d3e5684	0.046469226
7	0xbe43f66a	-0.19136968
8	0x3d9b01d6	0.075687096
9	0xbda569c3	-0.08076813
10	0xbe251e79	-0.16124906
11	0x3d6072bf	0.05479693
12	0x3e43d62a	0.19124666
13	0xbe30b283	-0.17255597
14	0x3d736326	0.059420727
15	0x3ded1a92	0.115773335
16	0xbe089311	-0.13337351
17	0xbd790012	-0.060791083
18	0x3e4b8ac9	0.19877161
19	0x3dde186f	0.10844504
20	0x3e44b709	0.19210447
21	0xbdcb7460	-0.09934306
22	0xbb595ddc	-0.0033167517
23	0x3e181e36	0.14855275
24	0xbd63c5e8	-0.05560866
25	0xbca41964	-0.020031638
26	0x3dffc76d	0.12489209
27	0xbe224892	-0.15847996
28	0x3e379a4b	0.17929952
29	0xbd7660b2	-0.06015081
30	0xbe10e0e8	-0.14148295
31	0x3d26bb8b	0.0407062
32	0x3d05c1f8	0.032655686
33	0x3d94e71f	0.07270645
34	0x3d1a1a72	0.037622876
35	0x3d8e043e	0.06934403
36	0x3d0d1680	0.034445286
37	0x3d0de1b5	0.03463908
38	0x3d39f3ee	0.045398645
39	0xbe1e7947	-0.15475951
40	0xbddbf524	-0.10740116
41	0x3e26837c	0.16261095
42	0x3db88885	0.09010414
43	0x3e242d44	0.16032892
44	0xbdc602eb	-0.09668525
45	0x3e18c8bd	0.14920326
46	0x3bbf82bc	0.005844442
47	0xbd377a97	-0.044794645
48	0x3dd9bed0	0.10632098
49	0xbaa6fb50	-0.0012739692
50	0xbd965356	-0.07340114
51	0xbd368071	-0.044556085
52	0xbcd6efd0	-0.026237398
53	0xbd3774c0	-0.044789076
54	0xbd2d4685	-0.04230358
55	0xbc3c1975	-0.011480679
56	0x3dd43604	0.10361865
57	0x3d96ceb5	0.07363645
58	0x3daa537c	0.08316705
59	0x3ad39838	0.0016143387
60	0xbc4c9175	-0.0124858515
61	0x3e1c2497	0.15248333
62	0xbe3c60da	-0.18396321
63	0xbd70ec46	-0.058819078

layer2.weight f4 [64, 64]
0	0xbd9ad102	-0.07559396
1	0xbdcd94a0	-0.100381136
2	0x3dfa597c	0.12224099
3	0xbb7ddb78	-0.003873555
4	0x3de6ffb7	0.112792425
5	0xbde09766	-0.10966377
6	0xbc0a2ebc	-0.008433994
7	0x3bd7ad10	0.00658191
8	0x3df7b18a	0.1209441
9	0x3b9c56ba	0.004771081
10	0x3c002429	0.007821121
11	0xbd1a3ec8	-0.03765753
12	0xbc98d908	-0.018658176
13	0xbdd2be22	-0.10290171
14	0x3cad60c9	0.021164315
15	0x3daf6272	0.08563699
16	0xbd4e58f4	-0.0503778
17	0x3d4efc26	0.050533436
18	0x3d76325c	0.06010662
19	0xbd06a190	-0.03286892
20	0xbde31243	-0.110874675
21	0xbde4a64d	-0.11164532
22	0xbd07c7c5	-0.0331495
23	0x3c68c44c	0.014206957
24	0xbcecef06	-0.028922569
25	0xbd5a9686	-0.053366207
26	0x3dec083c	0.11525008
27	0xbdf598ed	-0.11992059
28	0xbdc5ac68	-0.096520245
29	0x3d48022a	0.04883019
30	0x3d0e1596	0.034688555
31	0xbd55ec3b	-0.05222724
32	0x3de56142	0.11200191
33	0x3df86475	0.12128536
34	0x3d914c48	0.070946276
35	0x3d8e7928	0.069567025
36	0xbcce23d6	-0.025163572
37	0x3d82647e	0.063668236
38	0xbdaae07a	-0.08343597
39	0xbce1b3e6	-0.027551603
40	0x3d951ea5	0.072812356
41	0xbe0a442f	-0.13502572
42	0x3e114d82	0.14189723
43	0xbd5b6c58	-0.05357012
44	0xbdc54bb0	-0.09633577
45	0x3d81cb06	0.06337552
46	0x3d2e9a57	0.04262766
47	0xbd91bdd8	-0.07116288
48	0x3dd61abd	0.10454319
49	0xbd01bffd	-0.031677235
50	0x3d49d8c8	0.049279004
51	0xbc165df6	-0.0091776755
52	0xbc89bea9	-0.016814547
53	0xbdaa23bc	-0.08307597
54	0xbd0d0e29	-0.034437332
55	0xbb93561e	-0.00449635
56	0x3df5da32	0.12004508
57	0xbdb76c7a	-0.08956237
58	0x3db2c780	0.08729458
59	0xbc7fc1b2	-0.015610145
60	0x3d9ee552	0.07758583
61	0xbc6fe4e3	-0.014641973
62	0xbe05fbc6	-0.13084325
63	0x3c935568	0.01798506
64	0x3d812400	0.063056946
65	0x3de362a5	0.11102799
66	0xbd1ff1b2	-0.039048858
67	0xbc35c515	-0.011094351
68	0x3d3a7c24	0.045528546
69	0x3dc443a6	0.095832154
70	0x3dce4e07	0.10073476
71	0xbd621bde	-0.055202357
72	0xbdca2104	-0.098695785
73	0xbce728a5	-0.028217623
74	0xbd2690e8	-0.040665537
75	0xbd8f31fc	-0.06991956
76	0xbd0dd983	-0.034631263
77	0xbdc08bb5	-0.09401647
78	0xbdecca7d	-0.11562059
79	0x3db2ce35	0.08730737
80	0x3d228128	0.039673954
81	0x3cf7c4ff	0.030245302
82	0xbc8f78fc	-0.017513745
83	0xbd995671	-0.074871905
84	0xbcb907d7	-0.022586746
85	0x3d89552c	0.06705698
86	0xbdc2c416	-0.09510057
87	0xbd3419dc	-0.043969974
88	0x3ced6ad3	0.028981602
89	0xbc095e79	-0.00838434
90	0x3ddefefa	0.10888477
91	0x3dd75416	0.10514085
92	0xbd8ce8ce	-0.068803415
93	0xbdef5324	-0.1168578
94	0x3ccec758	0.025241539
95	0xbc17c680	-0.009263635
96	0xbde0ed66	-0.1098278
97	0xbd45cd92	-0.04829175
98	0xbd1a51f4	-0.037675813
99	0xbdf41807	-0.11918645
100	0xbb1dd280	-0.0024081767
101	0x3d4dbf82	0.050231464
102	0x3ba51ea2	0.005039052
103	0xbdb8ea6c	-0.090290874
104	0xbd356547	-0.04428604
105	0xbc75c77e	-0.015001176
106	0x3da41501	0.08011819
107	0x3df0d905	0.11760143
108	0xba770640	-0.00094232336
109	0x3d5e9685	0.054342765
110	0x3d208fa3	0.039199483
111	0x3cdf6fe8	0.02727504
112	0x3dd0e769	0.10200388
113	0x3d03e48e	0.03220039
114	0x3a9912e0	0.0011678599
115	0xbd9feff3	-0.078094386
116	0x3d09dbb7	0.033656802
117	0xbdf2ca6a	-0.11855014
118	0x3dd79d51	0.105280526
119	0xbd8567b3	-0.0651392
120	0x3c40f8f4	0.011778105
121	0x3d3571d9	0.044298027
122	0xbddda24b	-0.108219706
123	0xbd7fdce2	-0.06246651
124	0x3df5c530	0.12000501
125	0xbdf0f8d4	-0.1176621
126	0xbdcf6f10	-0.10128605
127	0x3d895ede	0.067075476
128	0x3dafc1c7	0.08581882
129	0xbdda0069	-0.106446095
130	0x3d0c1e57	0.03420862
131	0x3e07c6a6	0.13259372
132	0xbd9c10b1	-0.07620371
133	0x3dc938ce	0.09825288
134	0x3cddfb44	0.027097352
135	0xbd1e8197	-0.038697805
136	0x3d55f06d	0.05223124
137	0xbdb70c05	-0.089378394
138	0xbda0b7d1	-0.0784756
139	0x3d9d108c	0.07669172
140	0xbd9f0f7b	-0.077666245
141	0xbd3b08a8	-0.045662552
142	0x3cbbd8d0	0.022930533
143	0x3d907467	0.07053452
144	0x3ca14f14	0.019691028
145	0x3d6d385f	0.057915088
146	0xbcbc65d2	-0.02299777
147	0x3d5048e4	0.050850764
148	0x3c598f77	0.013278834
149	0x3da417f6	0.08012383
150	0x3e08f10b	0.133732
151	0x3d2ec9a6	0.042672776
152	0xbdc3d957	-0.09562939
153	0x3e120da6	0.14263019
154	0x3d00e4f0	0.03146833
155	0x3dd0a840	0.10188341
156	0x3d02cc5b	0.03193317
157	0x3d01495a	0.031564094
158	0xbd78065e	-0.060552947
159	0xbd81f2b8	-0.06345123
160	0xbcbcf318	-0.023065135
161	0x3dcbd28a	0.099522665
162	0x3dbca0c8	0.09210354
163	0xbd6293a9	-0.0553166
164	0xbde15b12	-0.110036984
165	0xbbca37fe	-0.0061712256
166	0xbdb2c1fb	-0.08728405
167	0xbd29e61c	-0.041479215
168	0xbdc9beea	-0.09850867
169	0xbd249591	-0.0401817
170	0xbd7c432a	-0.06158749
171	0xbc128743	-0.008943382
172	0x3da7e968	0.081988156
173	0x3df222d3	0.118230484
174	0x3e0fffe7	0.14062463
175	0x3d87f2fb	0.06638142
176	0xbd96e3db	-0.07367679
177	0xbd0e38a8	-0.034722
178	0xbd82fab5	-0.06395475
179	0x3db3e269	0.08783419
180	0xbd65f72c	-0.056143925
181	0x3d5176df	0.051138755
182	0xbdd6fde3	-0.10497644
183	0x3c49543c	0.012288149
184	0xbcc8ebe9	-0.024526553
185	0xbbd5a4b4	-0.0065198783
186	0x3ce7daa1	0.028302493
187	0xbdd03b0e	-0.10167514
188	0xbd2c98c4	-0.042137876
189	0xbdaafb73	-0.083487414
190	0xbd722b14	-0.059123114
191	0x3d6db600	0.058034897
192	0x3d78f5b0	0.06078118
193	0x3ddb58dc	0.10710308
194	0xbdbd513e	-0.09244011
195	0xbd9f9890	-0.07792771
196	0xbd1c4f01	-0.03816128
197	0xbc18f612	-0.0093360115
198	0x3ce466c0	0.027881026
199	0xbdee3192	-0.116305485
200	0xbd732e98	-0.059370607
201	0x3d605fbc	0.0547788
202	0x3d68f4e4	0.05687417
203	0xba5be170	-0.000838778
204	0xbdfaa0b5	-0.12237684
205	0xbdb3b500	-0.087747574
206	0x3db62689	0.08894069
207	0xbca0a4c0	-0.019609809
208	0x3d8b2038	0.067932546
209	0x3cbe1dff	0.023207663
210	0x3c5ca14a	0.013466189
211	0xbd86f580	-0.06589794
212	0xbd27da12	-0.040979452
213	0xbddc05f0	-0.1074332
214	0x3d8e0684	0.069348365
215	0xbdead539	-0.1146645
216	0xbde75372	-0.11295213
217	0xbddfd5c0	-0.109294415
218	0x3d7af1cc	0.06126575
219	0x3dd767e9	0.10517866
220	0xbc780971	-0.01513897
221	0xbd7cbd95	-0.061704237
222	0xbdbee0bc	-0.093202084
223	0x3d076e90	0.033064425
224	0x3db8f0d2	0.09030308
225	0xbd33badc	-0.043879375
226	0x3cb66740	0.02226603
227	0x3d05b96d	0.03264754
228	0xbd7cc84f	-0.061714467
229	0x3ddf7bbc	0.10912272
230	0x3df2f5d8	0.11863297
231	0xbde81694	-0.113324314
232	0xbcd97447	-0.026544703
233	0xbc4570f0	-0.012050852
234	0x3d0987fa	0.033576943
235	0x3d1859d3	0.037195038
236	0xbd97c85e	-0.07411264
237	0xbe11161d	-0.14168592
238	0x3cc54722	0.02408177
239	0xbddd56fe	-0.10807608
240	0xbced921e	-0.029000338
241	0xbe06cfe3	-0.1316524
242	0x3dcfa737	0.101393156
243	0x3d03d484	0.032185093
244	0x3bd9b220	0.0066435486
245	0xbcc4f8cf	-0.024044422
246	0xbd8038bc	-0.06260821
247	0x3de078f7	0.10960572
248	0xbbc26316	-0.005932222
249	0x3d245e82	0.040129192
250	0xbdcd23b0	-0.100165725
251	0xbe09ec92	-0.1346915
252	0xbd85423a	-0.06506772
253	0x3d148e24	0.03626837
254	0x3d8dc606	0.069225356
255	0x3cf0cab0	0.029393524

layer2.bias f4 [64]
0	0x3cd2505a	0.02567308
1	0xbd398f5e	-0.04530274
2	0x3ce9633a	0.028489698
3	0xbd8a731a	-0.06760235
4	0xbd2e8752	-0.04260952
5	0xbd085f43	-0.033293974
6	0xbd62dc49	-0.05538586
7	0x3d32aa82	0.04361964
8	0x3c36af8d	0.011150253
9	0x3dace2cf	0.08441698
10	0xbdb5a622	-0.08869578
11	0x3c171703	0.009221795
12	0x3cfe7f89	0.031066673
13	0x3c35edda	0.0111040715
14	0xbd00af0f	-0.03141695
15	0x3946efc0	0.00018972065
16	0x3e0580d8	0.13037431
17	0xbd9cacc5	-0.07650141
18	0x3e0a218d	0.13489361
19	0xbddf8022	-0.10913111
20	0xbd87c96a	-0.066302136
21	0xbcc0b91a	-0.023525763
22	0xbd197f8a	-0.037475146
23	0x3cb4f8d9	0.022091316
24	0x3cafcb68	0.021459296
25	0xbd331b66	-0.0437273
26	0xbe0ada80	-0.13559914
27	0xbdcef38f	-0.10105049
28	0xbc16a7e0	-0.009195298
29	0x3d8a8e9c	0.06765482
30	0xbdd8c8dc	-0.10585186
31	0xbde35477	-0.11100095
32	0x3d3e199c	0.04641114
33	0xbce9c1b2	-0.028534744
34	0x3b1fe434	0.0024397494
35	0xbd4ca7f7	-0.04996487
36	0x3c0d51dd	0.008625475
37	0x3db1b885	0.086777724
38	0x3d75d2b3	0.06001539
39	0x3d096283	0.033541214
40	0xbd98df96	-0.07464521
41	0x3d7034d5	0.058644135
42	0x3d5a487f	0.053291794
43	0xbcdc274a	-0.026874203
44	0xbb6c6a60	-0.0036074147
45	0xbc79354a	-0.015210459
46	0x3dc1f7d1	0.09471095
47	0xbdf7c2e0	-0.12097716
48	0xbcb61f7e	-0.022231814
49	0x3dbad5ff	0.09122848
50	0xbb08a590	-0.0020850636
51	0x3e0596ef	0.13045858
52	0x3e00186b	0.12509315
53	0xbd41d334	-0.04732056
54	0xbd6777e0	-0.056510806
55	0xbdbf7a2b	-0.093494736
56	0xbcb5cf31	-0.022193523
57	0xbc884ab3	-0.016637182
58	0x3dd78ea8	0.105252564
59	0xbc92bbf3	-0.017911887
60	0xbd75b853	-0.05999024
61	0xbd406b80	-0.04697752
62	0xbd35ad0a	-0.044354476
63	0x3de0d9a6	0.10979013

layer3.weight f4 [3, 64]
0	0xbda3d80c	-0.08000192
1	0xbdb72e12	-0.08944334
2	0x3ca60852	0.02026764
3	0x3d8a4cc2	0.06752922
4	0x3c3e0e3d	0.011600074
5	0xbca718be	-0.02039754
6	0xbb841342	-0.004030616
7	0xbd864469	-0.06556017
8	0xbdd5bc6e	-0.10436331
9	0x3d95b8a7	0.0731061
10	0xbdd5f046	-0.10446219
11	0xbd56bd47	-0.052426603
12	0xbdf80e8d	-0.1211215
13	0x3dff2b4d	0.12459431
14	0xbca8fbba	-0.020627845
15	0xbdfaa7ee	-0.12239061
16	0xbd604662	-0.054754622
17	0x3ddc648b	0.107613645
18	0x3cfce59d	0.030871207
19	0xbd5af62c	-0.053457424
20	0x3dcb3c4c	0.0992361
21	0xbda0d408	-0.07852942
22	0x3df5a3ab	0.11994108
23	0x3db20e57	0.08694141
24	0x3aad43e0	0.0013219081
25	0x3de83b95	0.11339489
26	0xbdcd90b1	-0.10037363
27	0x3d9d102f	0.076691024
28	0x3d515608	0.051107436
29	0xbdcfd032	-0.10147132
30	0x3d907b41	0.07054759
31	0xbd6bfa58	-0.057611793
32	0x3d68c98b	0.05683283
33	0x3d59acb1	0.053143207
34	0xbd85cc56	-0.065331146
35	0xbc2df0a4	-0.010616455
36	0xbd9ca18e	-0.076480016
37	0x3ce88c14	0.028387107
38	0xbda38d27	-0.07985907
39	0xbd9ff6be	-0.07810734
40	0xbc1bedc6	-0.009517139
41	0x3dfc6f10	0.12325871
42	0x3dc10dc8	0.09426457
43	0xbda04525	-0.07825688
44	0x3da12da2	0.07870032
45	0x3da20a38	0.07912105
46	0x3bd78626	0.006577271
47	0xbbecb320	-0.007223502
48	0x3d96846f	0.073494785
49	0xbd5238ac	-0.051323578
50	0x3cdf4ae6	0.027257394
51	0xbd060b6e	-0.032725744
52	0x3d95182f	0.07280003
53	0xbcc14b59	-0.023595499
54	0x3dd7a137	0.10528796
55	0xbb5c08a8	-0.0033574495
56	0xbd6da8ae	-0.058022194
57	0x3d13085c	0.035896644
58	0x3de21723	0.11039569
59	0xbdbc5885	-0.09196571
60	0xbd5283e1	-0.0513953
61	0x3d6d8dc3	0.057996523
62	0x3dbe5e88	0.09295374
63	0xbcc8331e	-0.024438437
64	0xbdc9732d	-0.09836421
65	0xbdde7b7e	-0.10863398
66	0xbe02ecb4	-0.12785608
67	0xbc88721e	-0.016655978
68	0xbba80e72	-0.005128675
69	0x3c313a28	0.010817088
70	0x3d87245c	0.06598732
71	0xbdf42da0	-0.11922765
72	0xbc23eaa5	-0.010004674
73	0xbc649bbf	-0.013953148
74	0x3dc7c33e	0.09754036
75	0xbd6de982	-0.05808402
76	0xbcb80ec8	-0.022467986
77	0xbd01998f	-0.031640586
78	0x3d3019a6	0.04299321
79	0x3d78d978	0.06075427
80	0xbdfdcfbe	-0.12393139
81	0xbcb53e70	-0.0221245
82	0xbdbe8cb9	-0.093041845
83	0xbdddfc82	-0.10839178
84	0xbd2e1a4a	-0.04250554
85	0x3dd2ce8f	0.10293304
86	0x3d5be560	0.053685546
87	0xbdf497fe	-0.11943053
88	0xbd8afea3	-0.06786849
89	0x3c1e1923	0.009649548
90	0xbccf8054	-0.025329746
91	0x3db7fec6	0.08984141
92	0xbdd674d6	-0.104715034
93	0xbd7bc830	-0.06147021
94	0x3d93db2f	0.0721954
95	0x3b59f7bc	0.0033259233
96	0xbcb54a67	-0.022130204
97	0x3d922f50	0.071379304
98	0xbdecfb98	-0.11571425
99	0xbd371be2	-0.044704325
100	0x3d9f9689	0.07792384
101	0xbd3e2d4f	-0.04642993
102	0x3ca7629d	0.020432765
103	0xbb42eb6c	-0.0029742373
104	0xbdec1d00	-0.11528969
105	0xbc00baee	-0.0078570675
106	0xbcc20a60	-0.023686588
107	0xbd0bbf92	-0.034118243
108	0xbce80a20	-0.02832514
109	0xbbeb4256	-0.0071795387
110	0x3d88aa99	0.06673164
111	0x3d04ff40	0.032469988
112	0x3dab4637	0.08363002
113	0xbdd184cc	-0.10230407
114	0xbe11c945	-0.14236934
115	0xbd22875b	-0.039679866
116	0xbddeb3ed	-0.10874162
117	0xbe134db9	-0.14385118
118	0xbe069c98	-0.13145673
119	0x3cff65fc	0.03117656
120	0xbd068611	-0.0328427
121	0x3c25523a	0.010090405
122	0xbd1089b4	-0.035287574
123	0xbcc3ff36	-0.023925405
124	0x3d795b50	0.060878098
125	0x3bc7d9da	0.006098968
126	0xbd845110	-0.06460774
127	0x3a85b748	0.0010201717
128	0xbd8fa68c	-0.07014188
129	0xbd01d120	-0.031693578
130	0xbc9ae54e	-0.01890817
131	0x3b0986e0	0.0020984933
132	0xbdc0d827	-0.09416228
133	0xbcd3d744	-0.025859483
134	0xbdaf97ac	-0.08573851
135	0xbc536af7	-0.01290392
136	0xbdb1b468	-0.08676988
137	0xbd99a50c	-0.07502183
138	0xbc472e61	-0.012157054
139	0xbd553e43	-0.05206133
140	0xba9e9268	-0.0012098076
141	0xbe123a3b	-0.14280026
142	0x3bb1d318	0.0054267757
143	0xbd0ae6f2	-0.033911653
144	0xbdc86444	-0.09784749
145	0xbcf5ea5f	-0.030018983
146	0xbc82e8dd	-0.015980178
147	0x3d4b17ac	0.049583122
148	0xbbcae3ee	-0.006191722
149	0x3dca7308	0.09885222
150	0x3dba5abc	0.090993375
151	0xbb887658	-0.0041644983
152	0xbd83be2e	-0.06432758
153	0xbdafb196	-0.08578794
154	0xbdfaf462	-0.122536436
155	0xbd7268be	-0.05918192
156	0x3de6dc12	0.11272444
157	0xbce67e72	-0.028136466
158	0xbdb54ade	-0.088521704
159	0xbd20d809	-0.039268527
160	0xbdb72221	-0.089420564
161	0xbceefbd0	-0.029172808
162	0xbd8f75ae	-0.070048675
163	0x3ca1ae50	0.019736439
164	0xbd97978c	-0.07401952
165	0x3df24d6a	0.11831172
166	0x3afc5090	0.0019250084
167	0x3db9398c	0.09044179
168	0x3cdf1488	0.02723147
169	0x3cab9960	0.020947158
170	0x3e0ecfea	0.139465
171	0xbd0b80e8	-0.03405848
172	0x3d673b6e	0.05645316
173	0xbd24068c	-0.040045306
174	0x3dc6ae8e	0.097012624
175	0x3db330c0	0.08749533
176	0x3ddbfeba	0.107419446
177	0x3de13b60	0.10997653
178	0x3d831d89	0.06402118
179	0x3d720094	0.059082583
180	0x3dad80ac	0.08471808
181	0xbd998960	-0.07496905
182	0x3d889bfa	0.06670375
183	0x3ca335a4	0.019923039
184	0x3db9cbbb	0.09072062
185	0x3caf45ae	0.02139553
186	0x3ded324d	0.1158186
187	0xbda8ed2c	-0.08248362
188	0xbda45037	-0.08023112
189	0xbde42c66	-0.11141281
190	0x3dcb1fb1	0.09918154
191	0xbd9148ee	-0.07093988

layer3.bias f4 [3]
0	0xbdcbffd0	-0.09960902
1	0xbd8872fa	-0.06662555
2	0x3d69720c	0.05699353
